SETUP TIME =  200.62304377555847
Model: "sequential"
_________________________________________________________________
 Layer (type)                Output Shape              Param #   
=================================================================
 lstm (LSTM)                 (None, 1200, 128)         68096     
                                                                 
 lstm_1 (LSTM)               (None, 128)               131584    
                                                                 
 dense (Dense)               (None, 64)                8256      
                                                                 
 dense_1 (Dense)             (None, 1)                 65        
                                                                 
=================================================================
Total params: 208,001
Trainable params: 208,001
Non-trainable params: 0
_________________________________________________________________
MODEL LOAD TIME =  8.479542016983032
DATASET TIME =  20.010038137435913
Running inference for Batch: 1
SETUP TIME =  4.248312473297119
Model: "sequential"
_________________________________________________________________
 Layer (type)                Output Shape              Param #   
=================================================================
 lstm (LSTM)                 (None, 1200, 128)         68096     
                                                                 
 lstm_1 (LSTM)               (None, 128)               131584    
                                                                 
 dense (Dense)               (None, 64)                8256      
                                                                 
 dense_1 (Dense)             (None, 1)                 65        
                                                                 
=================================================================
Total params: 208,001
Trainable params: 208,001
Non-trainable params: 0
_________________________________________________________________
MODEL LOAD TIME =  6.099198818206787
DATASET TIME =  5.624594449996948
Running inference for Batch: 1
SETUP TIME =  4.550990581512451
Model: "sequential"
_________________________________________________________________
 Layer (type)                Output Shape              Param #   
=================================================================
 lstm (LSTM)                 (None, 1200, 128)         68096     
                                                                 
 lstm_1 (LSTM)               (None, 128)               131584    
                                                                 
 dense (Dense)               (None, 64)                8256      
                                                                 
 dense_1 (Dense)             (None, 1)                 65        
                                                                 
=================================================================
Total params: 208,001
Trainable params: 208,001
Non-trainable params: 0
_________________________________________________________________
MODEL LOAD TIME =  6.278613805770874
DATASET TIME =  5.648388862609863
Running inference for Batch: 1
SETUP TIME =  9.791666746139526
Model: "sequential"
_________________________________________________________________
 Layer (type)                Output Shape              Param #   
=================================================================
 lstm (LSTM)                 (None, 1200, 128)         68096     
                                                                 
 lstm_1 (LSTM)               (None, 128)               131584    
                                                                 
 dense (Dense)               (None, 64)                8256      
                                                                 
 dense_1 (Dense)             (None, 1)                 65        
                                                                 
=================================================================
Total params: 208,001
Trainable params: 208,001
Non-trainable params: 0
_________________________________________________________________
MODEL LOAD TIME =  6.614850997924805
DATASET TIME =  16.120696783065796
Running inference for Batch: 1
SETUP TIME =  4.451810836791992
Model: "sequential"
_________________________________________________________________
 Layer (type)                Output Shape              Param #   
=================================================================
 lstm (LSTM)                 (None, 1200, 128)         68096     
                                                                 
 lstm_1 (LSTM)               (None, 128)               131584    
                                                                 
 dense (Dense)               (None, 64)                8256      
                                                                 
 dense_1 (Dense)             (None, 1)                 65        
                                                                 
=================================================================
Total params: 208,001
Trainable params: 208,001
Non-trainable params: 0
_________________________________________________________________
MODEL LOAD TIME =  5.645816087722778
DATASET TIME =  5.552292346954346
Running inference for Batch: 1
SETUP TIME =  7.668381690979004
Model: "sequential"
_________________________________________________________________
 Layer (type)                Output Shape              Param #   
=================================================================
 lstm (LSTM)                 (None, 1200, 128)         68096     
                                                                 
 lstm_1 (LSTM)               (None, 128)               131584    
                                                                 
 dense (Dense)               (None, 64)                8256      
                                                                 
 dense_1 (Dense)             (None, 1)                 65        
                                                                 
=================================================================
Total params: 208,001
Trainable params: 208,001
Non-trainable params: 0
_________________________________________________________________
MODEL LOAD TIME =  6.461220026016235
DATASET TIME =  7.596325397491455
Running inference for Batch: 1
SETUP TIME =  4.475104808807373
Model: "sequential"
_________________________________________________________________
 Layer (type)                Output Shape              Param #   
=================================================================
 lstm (LSTM)                 (None, 1200, 128)         68096     
                                                                 
 lstm_1 (LSTM)               (None, 128)               131584    
                                                                 
 dense (Dense)               (None, 64)                8256      
                                                                 
 dense_1 (Dense)             (None, 1)                 65        
                                                                 
=================================================================
Total params: 208,001
Trainable params: 208,001
Non-trainable params: 0
_________________________________________________________________
MODEL LOAD TIME =  6.604583978652954
DATASET TIME =  5.543320894241333
Running inference for Batch: 1
SETUP TIME =  5.88073205947876
Model: "sequential"
_________________________________________________________________
 Layer (type)                Output Shape              Param #   
=================================================================
 lstm (LSTM)                 (None, 1200, 128)         68096     
                                                                 
 lstm_1 (LSTM)               (None, 128)               131584    
                                                                 
 dense (Dense)               (None, 64)                8256      
                                                                 
 dense_1 (Dense)             (None, 1)                 65        
                                                                 
=================================================================
Total params: 208,001
Trainable params: 208,001
Non-trainable params: 0
_________________________________________________________________
MODEL LOAD TIME =  8.058564186096191
DATASET TIME =  5.615041017532349
Running inference for Batch: 1
Inference time: 78.5357403755188
…
