SETUP TIME =  4.239079475402832
Model: "sequential"
_________________________________________________________________
 Layer (type)                Output Shape              Param #   
=================================================================
 lstm (LSTM)                 (None, 1200, 256)         267264    
                                                                 
 lstm_1 (LSTM)               (None, 256)               525312    
                                                                 
 dense (Dense)               (None, 64)                16448     
                                                                 
 dense_1 (Dense)             (None, 1)                 65        
                                                                 
=================================================================
Total params: 809,089
Trainable params: 809,089
Non-trainable params: 0
_________________________________________________________________
MODEL LOAD TIME =  4.8507208824157715
DATASET TIME =  5.73488187789917
Running inference for Batch: 1
SETUP TIME =  4.2093284130096436
Model: "sequential"
_________________________________________________________________
 Layer (type)                Output Shape              Param #   
=================================================================
 lstm (LSTM)                 (None, 1200, 256)         267264    
                                                                 
 lstm_1 (LSTM)               (None, 256)               525312    
                                                                 
 dense (Dense)               (None, 64)                16448     
                                                                 
 dense_1 (Dense)             (None, 1)                 65        
                                                                 
=================================================================
Total params: 809,089
Trainable params: 809,089
Non-trainable params: 0
_________________________________________________________________
MODEL LOAD TIME =  5.254270792007446
DATASET TIME =  5.680634021759033
Running inference for Batch: 1
Inference time: 69.41902422904968
…
