SETUP TIME =  5.21949577331543
Model: "sequential"
_________________________________________________________________
 Layer (type)                Output Shape              Param #   
=================================================================
 lstm (LSTM)                 (None, 1200, 64)          17664     
                                                                 
 lstm_1 (LSTM)               (None, 1200, 64)          33024     
                                                                 
 lstm_2 (LSTM)               (None, 64)                33024     
                                                                 
 dense (Dense)               (None, 64)                4160      
                                                                 
 dense_1 (Dense)             (None, 1)                 65        
                                                                 
=================================================================
Total params: 87,937
Trainable params: 87,937
Non-trainable params: 0
_________________________________________________________________
MODEL LOAD TIME =  9.644913911819458
DATASET TIME =  5.634567022323608
Running inference for Batch: 1
Inference time: 66.21567487716675
…
