SETUP TIME =  14.842751026153564
DATASET TIME =  7.519447088241577
Model: "sequential"
_________________________________________________________________
 Layer (type)                Output Shape              Param #   
=================================================================
 lstm (LSTM)                 (None, 1200, 64)          17664     
                                                                 
 lstm_1 (LSTM)               (None, 1200, 64)          33024     
                                                                 
 lstm_2 (LSTM)               (None, 64)                33024     
                                                                 
 dense (Dense)               (None, 64)                4160      
                                                                 
 dense_1 (Dense)             (None, 1)                 65        
                                                                 
=================================================================
Total params: 87,937
Trainable params: 87,937
Non-trainable params: 0
_________________________________________________________________
MODEL COMPILE TIME =  2.907280683517456
Epoch 1/200
994/994 - 1052s - loss: 1.1075e-04 - mse: 1.1075e-04 - mape: 37.6444 - mae: 0.0037 - val_loss: 8.7415e-06 - val_mse: 8.7415e-06 - val_mape: 16.9086 - val_mae: 0.0012 - lr: 0.0010 - 1052s/epoch - 1s/step
…
