SETUP TIME =  9.41254186630249
Model: "sequential"
_________________________________________________________________
 Layer (type)                Output Shape              Param #   
=================================================================
 lstm (LSTM)                 (None, 1200, 256)         267264    
                                                                 
 lstm_1 (LSTM)               (None, 1200, 128)         197120    
                                                                 
 lstm_2 (LSTM)               (None, 64)                49408     
                                                                 
 dense (Dense)               (None, 64)                4160      
                                                                 
 dense_1 (Dense)             (None, 1)                 65        
                                                                 
=================================================================
Total params: 518,017
Trainable params: 518,017
Non-trainable params: 0
_________________________________________________________________
MODEL LOAD TIME =  7.697878837585449
DATASET TIME =  6.84675931930542
Running inference for Batch: 1
Inference time: 98.18480062484741
…
