SETUP TIME =  50.48588156700134
DATASET TIME =  21.40166664123535
Model: "sequential"
_________________________________________________________________
 Layer (type)                Output Shape              Param #   
=================================================================
 lstm (LSTM)                 (None, 1200, 256)         267264    
                                                                 
 lstm_1 (LSTM)               (None, 1200, 128)         197120    
                                                                 
 lstm_2 (LSTM)               (None, 64)                49408     
                                                                 
 dense (Dense)               (None, 64)                4160      
                                                                 
 dense_1 (Dense)             (None, 1)                 65        
                                                                 
=================================================================
Total params: 518,017
Trainable params: 518,017
Non-trainable params: 0
_________________________________________________________________
MODEL COMPILE TIME =  3.88742995262146
Epoch 1/200
994/994 - 1179s - loss: 1.1713e-04 - mse: 1.1713e-04 - mape: 131.6764 - mae: 0.0043 - val_loss: 2.0469e-06 - val_mse: 2.0469e-06 - val_mape: 7.3274 - val_mae: 6.2891e-04 - lr: 0.0010 - 1179s/epoch - 1s/step
…
