SETUP TIME =  6.775573015213013
Model: "sequential"
_________________________________________________________________
 Layer (type)                Output Shape              Param #   
=================================================================
 lstm (LSTM)                 (None, 1200, 128)         68096     
                                                                 
 lstm_1 (LSTM)               (None, 1200, 128)         131584    
                                                                 
 lstm_2 (LSTM)               (None, 128)               131584    
                                                                 
 dense (Dense)               (None, 64)                8256      
                                                                 
 dense_1 (Dense)             (None, 1)                 65        
                                                                 
=================================================================
Total params: 339,585
Trainable params: 339,585
Non-trainable params: 0
_________________________________________________________________
MODEL LOAD TIME =  7.477875471115112
DATASET TIME =  15.73341989517212
Running inference for Batch: 1
SETUP TIME =  4.4599387645721436
Model: "sequential"
_________________________________________________________________
 Layer (type)                Output Shape              Param #   
=================================================================
 lstm (LSTM)                 (None, 1200, 128)         68096     
                                                                 
 lstm_1 (LSTM)               (None, 1200, 128)         131584    
                                                                 
 lstm_2 (LSTM)               (None, 128)               131584    
                                                                 
 dense (Dense)               (None, 64)                8256      
                                                                 
 dense_1 (Dense)             (None, 1)                 65        
                                                                 
=================================================================
Total params: 339,585
Trainable params: 339,585
Non-trainable params: 0
_________________________________________________________________
MODEL LOAD TIME =  6.7263548374176025
DATASET TIME =  5.76456356048584
Running inference for Batch: 1
Inference time: 140.41997241973877
…
