SETUP TIME =  59.67509341239929
DATASET TIME =  21.05940318107605
Model: "sequential"
_________________________________________________________________
 Layer (type)                Output Shape              Param #   
=================================================================
 lstm (LSTM)                 (None, 1200, 128)         68096     
                                                                 
 lstm_1 (LSTM)               (None, 1200, 128)         131584    
                                                                 
 lstm_2 (LSTM)               (None, 128)               131584    
                                                                 
 dense (Dense)               (None, 64)                8256      
                                                                 
 dense_1 (Dense)             (None, 1)                 65        
                                                                 
=================================================================
Total params: 339,585
Trainable params: 339,585
Non-trainable params: 0
_________________________________________________________________
MODEL COMPILE TIME =  4.50250244140625
Epoch 1/200
994/994 - 1067s - loss: 9.3153e-05 - mse: 9.3153e-05 - mape: 39.8099 - mae: 0.0034 - val_loss: 3.9000e-06 - val_mse: 3.9000e-06 - val_mape: 9.8708 - val_mae: 8.3937e-04 - lr: 0.0010 - 1067s/epoch - 1s/step
…
